Directory of model parameters to be saved: ./models/vgg16_4v2

C:\Users\kw.UNLOVEDPC\Anaconda3\envs\py3gpu-Env\lib\site-packages\ipykernel_launcher.py:36: UserWarning: Update your `Model` call to the Keras 2 API: `Model(inputs=Tensor("in..., outputs=Tensor("de...)`

_________________________________________________________________
Layer (type)                 Output Shape              Param #   
=================================================================
input_1 (InputLayer)         (None, 431, 128, 3)       0         
_________________________________________________________________
block1_conv1 (Conv2D)        (None, 431, 128, 64)      1792      
_________________________________________________________________
block1_conv2 (Conv2D)        (None, 431, 128, 64)      36928     
_________________________________________________________________
block1_pool (MaxPooling2D)   (None, 215, 64, 64)       0         
_________________________________________________________________
block2_conv1 (Conv2D)        (None, 215, 64, 128)      73856     
_________________________________________________________________
block2_conv2 (Conv2D)        (None, 215, 64, 128)      147584    
_________________________________________________________________
block2_pool (MaxPooling2D)   (None, 107, 32, 128)      0         
_________________________________________________________________
block3_conv1 (Conv2D)        (None, 107, 32, 256)      295168    
_________________________________________________________________
block3_conv2 (Conv2D)        (None, 107, 32, 256)      590080    
_________________________________________________________________
block3_conv3 (Conv2D)        (None, 107, 32, 256)      590080    
_________________________________________________________________
block3_pool (MaxPooling2D)   (None, 53, 16, 256)       0         
_________________________________________________________________
block4_conv1 (Conv2D)        (None, 53, 16, 512)       1180160   
_________________________________________________________________
block4_conv2 (Conv2D)        (None, 53, 16, 512)       2359808   
_________________________________________________________________
block4_conv3 (Conv2D)        (None, 53, 16, 512)       2359808   
_________________________________________________________________
block4_pool (MaxPooling2D)   (None, 26, 8, 512)        0         
_________________________________________________________________
block5_conv1 (Conv2D)        (None, 26, 8, 512)        2359808   
_________________________________________________________________
block5_conv2 (Conv2D)        (None, 26, 8, 512)        2359808   
_________________________________________________________________
block5_conv3 (Conv2D)        (None, 26, 8, 512)        2359808   
_________________________________________________________________
block5_pool (MaxPooling2D)   (None, 13, 4, 512)        0         
_________________________________________________________________
flatten_1 (Flatten)          (None, 26624)             0         
_________________________________________________________________
dense_1 (Dense)              (None, 64)                1704000   
_________________________________________________________________
dropout_1 (Dropout)          (None, 64)                0         
_________________________________________________________________
dense_2 (Dense)              (None, 32)                2080      
_________________________________________________________________
dense_3 (Dense)              (None, 8)                 264       
=================================================================
Total params: 16,421,032
Trainable params: 8,785,768
Non-trainable params: 7,635,264
_________________________________________________________________
None
Training...
Train on 12788 samples, validate on 1600 samples
Epoch 1/25
12788/12788 [==============================] - 82s 6ms/step - loss: 3.7036 - acc: 0.1679 - val_loss: 3.5441 - val_acc: 0.1825
…
