Directory of model parameters to be saved: ./models/vgg16_2

C:\Users\kw.UNLOVEDPC\Anaconda3\envs\py3gpu-Env\lib\site-packages\ipykernel_launcher.py:163: UserWarning: Update your `Model` call to the Keras 2 API: `Model(inputs=Tensor("sp..., outputs=Tensor("de...)`

_________________________________________________________________
Layer (type)                 Output Shape              Param #   
=================================================================
spect_input (InputLayer)     (None, 431, 128, 1)       0         
_________________________________________________________________
spect_block1_conv1 (Conv2D)  (None, 431, 128, 64)      640       
_________________________________________________________________
spect_block1_conv2 (Conv2D)  (None, 431, 128, 64)      36928     
_________________________________________________________________
spect_block1_pool (MaxPoolin (None, 215, 64, 64)       0         
_________________________________________________________________
spect_block2_conv1 (Conv2D)  (None, 215, 64, 128)      73856     
_________________________________________________________________
spect_block2_conv2 (Conv2D)  (None, 215, 64, 128)      147584    
_________________________________________________________________
spect_block2_pool (MaxPoolin (None, 107, 32, 128)      0         
_________________________________________________________________
spect_block3_conv1 (Conv2D)  (None, 107, 32, 256)      295168    
_________________________________________________________________
spect_block3_conv2 (Conv2D)  (None, 107, 32, 256)      590080    
_________________________________________________________________
spect_block3_conv3 (Conv2D)  (None, 107, 32, 256)      590080    
_________________________________________________________________
spect_block3_pool (MaxPoolin (None, 53, 16, 256)       0         
_________________________________________________________________
spect_block4_conv1 (Conv2D)  (None, 53, 16, 512)       1180160   
_________________________________________________________________
spect_block4_conv2 (Conv2D)  (None, 53, 16, 512)       2359808   
_________________________________________________________________
spect_block4_conv3 (Conv2D)  (None, 53, 16, 512)       2359808   
_________________________________________________________________
spect_block4_pool (MaxPoolin (None, 26, 8, 512)        0         
_________________________________________________________________
spect_block5_conv1 (Conv2D)  (None, 26, 8, 512)        2359808   
_________________________________________________________________
spect_block5_conv2 (Conv2D)  (None, 26, 8, 512)        2359808   
_________________________________________________________________
spect_block5_conv3 (Conv2D)  (None, 26, 8, 512)        2359808   
_________________________________________________________________
spect_block5_pool (MaxPoolin (None, 3, 1, 512)         0         
_________________________________________________________________
flatten_1 (Flatten)          (None, 1536)              0         
_________________________________________________________________
dense_1 (Dense)              (None, 64)                98368     
_________________________________________________________________
dropout_1 (Dropout)          (None, 64)                0         
_________________________________________________________________
dense_2 (Dense)              (None, 16)                1040      
_________________________________________________________________
dense_3 (Dense)              (None, 8)                 136       
=================================================================
Total params: 14,813,080
Trainable params: 7,178,968
Non-trainable params: 7,634,112
_________________________________________________________________
None
Training...
Train on 31970 samples, validate on 4000 samples
Epoch 1/12
31970/31970 [==============================] - 168s 5ms/step - loss: 3.0091 - acc: 0.3319 - val_loss: 2.5538 - val_acc: 0.4843
…
